edgetpu/retrain-backprop/extractor2.tflite (tflite, 10296 bytes, 5 tensors)

MobilenetV1/MobilenetV1/Conv2d_2_depthwise/BatchNorm_Fold/bias f4 [64]
0	0x3ffab50f	1.9586505
1	0x374d0000	1.2218952e-05
2	0x3f0cf194	0.5505612
3	0x3f8b2306	1.0870063
4	0x3faab080	1.3335114
5	0x3ffedacc	1.9910522
6	0x3f4810e4	0.78150773
7	0xb9f46000	-0.00046610832
8	0x3fa2dedc	1.2724261
9	0x40973522	4.725236
10	0x3f5fa218	0.8735671
11	0x4037631a	2.8654237
12	0x3e62f594	0.22163993
13	0x4037e850	2.8735542
14	0x3df904fc	0.12159154
15	0x3caf8a40	0.021428227
16	0x3f973c65	1.1815306
17	0x3f8317f0	1.024168
18	0x39f78400	0.0004720986
19	0xbf1dcbef	-0.616393
20	0x3fbd3612	1.4782126
21	0x3f8a2ace	1.0794313
22	0x3c622b40	0.013804257
23	0x40051804	2.0795908
24	0x3db938b8	0.09044021
25	0xbce303b0	-0.02771172
26	0x3df6897a	0.1203794
27	0x40c0df65	6.02727
28	0x400605ea	2.094111
29	0x405b4f77	3.4267251
30	0x3cf3fc40	0.029783368
31	0xb4a00000	-2.9802322e-07
32	0xbdb772f0	-0.089574695
33	0xbf2aa161	-0.66652495
34	0xbec8d8f5	-0.39228025
35	0x3ee042ac	0.43800867
36	0x3e0cdec0	0.13756847
37	0xbf3ddbc5	-0.74163467
38	0xbe421720	-0.18954134
39	0x3d0939f0	0.03350252
40	0x40ae5741	5.448151
41	0xbf3b3c58	-0.7313895
42	0x3ff603a2	1.9219859
43	0x3d881558	0.06644696
44	0xbf53815a	-0.8261925
45	0xbe787798	-0.24264371
46	0x3e525bf0	0.20542884
47	0x3f703f84	0.9384692
48	0x3fce0b44	1.6097188
49	0x3f0d6603	0.5523378
50	0x3f33b74a	0.7020155
51	0x3f68d4f2	0.9094993
52	0x400873de	2.132072
53	0xbebc4bba	-0.36776525
54	0x3d3c7ca0	0.04601729
55	0x3fbf033c	1.4922862
56	0x40921172	4.5646296
57	0x40948382	4.641053
58	0x3fc7ac18	1.5599394
59	0x40545d40	3.3181915
60	0xbf76a6f3	-0.96348494
61	0x3edc20f3	0.42993888
62	0x3fe39a0b	1.7781385
63	0xb8854000	-6.353855e-05

MobilenetV1/MobilenetV1/Conv2d_2_depthwise/depthwise_Fold;MobilenetV1/MobilenetV1/Conv2d_2_depthwise/weights_quant/FakeQuantWithMinMaxVars f4 [1, 3, 3, 64]
0	0xbece383e	-0.40277284
1	0x3ece383e	0.40277284
2	0x3ece383e	0.40277284
3	0xbf4e383e	-0.8055457
4	0xbece383e	-0.40277284
5	0x00000000	0.0
6	0x3ece383e	0.40277284
7	0x00000000	0.0
8	0xbf4e383e	-0.8055457
9	0x00000000	0.0
10	0xbece383e	-0.40277284
11	0xbf4e383e	-0.8055457
12	0x3ece383e	0.40277284
13	0x00000000	0.0
14	0x00000000	0.0
15	0x3ece383e	0.40277284
16	0x3ece383e	0.40277284
17	0x3ece383e	0.40277284
18	0x3ece383e	0.40277284
19	0x3ece383e	0.40277284
20	0xbece383e	-0.40277284
21	0x3fce383e	1.6110914
22	0x00000000	0.0
23	0x00000000	0.0
24	0xbfce383e	-1.6110914
25	0xbf9aaa2e	-1.2083185
26	0xbece383e	-0.40277284
27	0x40347136	2.8194098
28	0xbece383e	-0.40277284
29	0x00000000	0.0
30	0xbece383e	-0.40277284
31	0x00000000	0.0
32	0x00000000	0.0
33	0x00000000	0.0
34	0xc12dff74	-10.8748665
35	0x3ece383e	0.40277284
36	0x3ece383e	0.40277284
37	0x419aaa2e	19.333096
38	0x3ece383e	0.40277284
39	0x3ece383e	0.40277284
40	0xbece383e	-0.40277284
41	0x00000000	0.0
42	0x00000000	0.0
43	0xc01aaa2e	-2.416637
44	0x419de30f	19.735868
45	0x3ece383e	0.40277284
46	0x3ece383e	0.40277284
47	0xc04e383e	-3.2221828
48	0xbece383e	-0.40277284
49	0x3ece383e	0.40277284
50	0x00000000	0.0
51	0x3f9aaa2e	1.2083185
52	0xbece383e	-0.40277284
53	0xc210ff8c	-36.249557
54	0x3ece383e	0.40277284
55	0xbece383e	-0.40277284
56	0xbece383e	-0.40277284
57	0x401aaa2e	2.416637
58	0x00000000	0.0
59	0x00000000	0.0
60	0xc1bae2f8	-23.360825
61	0x3ece383e	0.40277284
62	0x00000000	0.0
63	0x3ece383e	0.40277284
64	0xbece383e	-0.40277284
65	0x3ece383e	0.40277284
66	0x3ece383e	0.40277284
67	0x00000000	0.0
68	0x00000000	0.0
69	0x00000000	0.0
70	0xbfce383e	-1.6110914
71	0x00000000	0.0
72	0xbece383e	-0.40277284
73	0x00000000	0.0
74	0xbece383e	-0.40277284
75	0xbf9aaa2e	-1.2083185
76	0x3ece383e	0.40277284
77	0x00000000	0.0
78	0xbece383e	-0.40277284
79	0x3ece383e	0.40277284
80	0x3ece383e	0.40277284
81	0x3ece383e	0.40277284
82	0x3ece383e	0.40277284
83	0x3f9aaa2e	1.2083185
84	0xbece383e	-0.40277284
85	0x3fce383e	1.6110914
86	0x3f4e383e	0.8055457
87	0x00000000	0.0
88	0xc04e383e	-3.2221828
89	0xbf9aaa2e	-1.2083185
90	0x3ece383e	0.40277284
91	0x409aaa2e	4.833274
92	0xbece383e	-0.40277284
93	0x00000000	0.0
94	0x00000000	0.0
95	0x3f4e383e	0.8055457
96	0x00000000	0.0
97	0x3ece383e	0.40277284
98	0xc180e327	-16.110914
99	0x00000000	0.0
100	0x3ece383e	0.40277284
101	0x41347136	11.277639
102	0x3f4e383e	0.8055457
103	0x3ece383e	0.40277284
104	0xbece383e	-0.40277284
105	0x404e383e	3.2221828
106	0x00000000	0.0
107	0xc080e327	-4.0277286
108	0x4000e327	2.0138643
109	0x00000000	0.0
110	0x3ece383e	0.40277284
111	0x00000000	0.0
112	0xbece383e	-0.40277284
113	0x3ece383e	0.40277284
114	0x3ece383e	0.40277284
115	0x4000e327	2.0138643
116	0xbece383e	-0.40277284
117	0xc1c48d9b	-24.569143
118	0x3ece383e	0.40277284
119	0xbece383e	-0.40277284
120	0xbece383e	-0.40277284
121	0x3ece383e	0.40277284
122	0xbf4e383e	-0.8055457
123	0xbece383e	-0.40277284
124	0xc000e327	-2.0138643
125	0x3ece383e	0.40277284
126	0xbece383e	-0.40277284
127	0x3ece383e	0.40277284
128	0x00000000	0.0
129	0x00000000	0.0
130	0x00000000	0.0
131	0x3ece383e	0.40277284
132	0x00000000	0.0
133	0x00000000	0.0
134	0x3f4e383e	0.8055457
135	0x00000000	0.0
136	0x00000000	0.0
137	0x00000000	0.0
138	0xbf4e383e	-0.8055457
139	0xbece383e	-0.40277284
140	0x00000000	0.0
141	0x00000000	0.0
142	0xbece383e	-0.40277284
143	0x00000000	0.0
144	0x00000000	0.0
145	0x00000000	0.0
146	0x00000000	0.0
147	0x3f4e383e	0.8055457
148	0x00000000	0.0
149	0xbece383e	-0.40277284
150	0x3ece383e	0.40277284
151	0x00000000	0.0
152	0xbece383e	-0.40277284
153	0x00000000	0.0
154	0x00000000	0.0
155	0x3f4e383e	0.8055457
156	0x00000000	0.0
157	0x00000000	0.0
158	0x00000000	0.0
159	0x3f4e383e	0.8055457
160	0x00000000	0.0
161	0x00000000	0.0
162	0xc10754e9	-8.45823
163	0xbece383e	-0.40277284
164	0x3ece383e	0.40277284
165	0x3f9aaa2e	1.2083185
166	0xbece383e	-0.40277284
167	0x3ece383e	0.40277284
168	0xbece383e	-0.40277284
169	0x401aaa2e	2.416637
170	0x00000000	0.0
171	0xbfce383e	-1.6110914
172	0x4190ff8c	18.124779
173	0xbece383e	-0.40277284
174	0x00000000	0.0
175	0x404e383e	3.2221828
176	0x00000000	0.0
177	0x00000000	0.0
178	0x3ece383e	0.40277284
179	0x3f4e383e	0.8055457
180	0xbece383e	-0.40277284
181	0xc1bae2f8	-23.360825
182	0x00000000	0.0
183	0x00000000	0.0
184	0x00000000	0.0
185	0xc0347136	-2.8194098
186	0xbf4e383e	-0.8055457
187	0x00000000	0.0
188	0x40f4e2ca	7.652684
189	0x00000000	0.0
190	0x00000000	0.0
191	0x00000000	0.0
192	0xbece383e	-0.40277284
193	0x3ece383e	0.40277284
194	0x3ece383e	0.40277284
195	0xbf9aaa2e	-1.2083185
196	0xbf4e383e	-0.8055457
197	0xbece383e	-0.40277284
198	0x3f9aaa2e	1.2083185
199	0x3ece383e	0.40277284
200	0xbece383e	-0.40277284
201	0x3ece383e	0.40277284
202	0x00000000	0.0
203	0xbece383e	-0.40277284
204	0x3ece383e	0.40277284
205	0x00000000	0.0
206	0x3ece383e	0.40277284
207	0x3ece383e	0.40277284
208	0xbece383e	-0.40277284
209	0x3ece383e	0.40277284
210	0x3ece383e	0.40277284
211	0x00000000	0.0
212	0xbece383e	-0.40277284
213	0x3ece383e	0.40277284
214	0x00000000	0.0
215	0xbece383e	-0.40277284
216	0x3fce383e	1.6110914
217	0x00000000	0.0
218	0xbece383e	-0.40277284
219	0xbf9aaa2e	-1.2083185
220	0xbece383e	-0.40277284
221	0x00000000	0.0
222	0x00000000	0.0
223	0x00000000	0.0
224	0x3ece383e	0.40277284
225	0x00000000	0.0
226	0xbf4e383e	-0.8055457
227	0x3f4e383e	0.8055457
228	0x3ece383e	0.40277284
229	0x40db1bc2	6.8471384
230	0x3ece383e	0.40277284
231	0x3ece383e	0.40277284
232	0xbece383e	-0.40277284
233	0x404e383e	3.2221828
234	0xbece383e	-0.40277284
235	0x3ece383e	0.40277284
236	0x41278db2	10.472094
237	0x3f4e383e	0.8055457
238	0x00000000	0.0
239	0xc08dc6ab	-4.4305015
240	0xbece383e	-0.40277284
241	0x3ece383e	0.40277284
242	0x00000000	0.0
243	0xbf4e383e	-0.8055457
244	0xbece383e	-0.40277284
245	0xc24fd4ae	-51.957695
246	0x3ece383e	0.40277284
247	0xbece383e	-0.40277284
248	0xbece383e	-0.40277284
249	0x4067ff46	3.6249557
250	0x00000000	0.0
251	0xbece383e	-0.40277284
252	0x41bae2f8	23.360825
253	0xbece383e	-0.40277284
254	0xbece383e	-0.40277284
255	0x3ece383e	0.40277284

MobilenetV1/MobilenetV1/Conv2d_0/Conv2D_Fold;MobilenetV1/MobilenetV1/Conv2d_0/weights_quant/FakeQuantWithMinMaxVars u1 [32, 3, 3, 3] scale=0.021826679 zero_point=151
0	0x97	0.0
1	0x97	0.0
2	0x97	0.0
3	0x97	0.0
4	0x96	-0.021826679
5	0x97	0.0
6	0x97	0.0
7	0x96	-0.021826679
8	0x96	-0.021826679
9	0x97	0.0
10	0x97	0.0
11	0x97	0.0
12	0x97	0.0
13	0x97	0.0
14	0x97	0.0
15	0x97	0.0
16	0x96	-0.021826679
17	0x96	-0.021826679
18	0x97	0.0
19	0x97	0.0
20	0x97	0.0
21	0x97	0.0
22	0x97	0.0
23	0x96	-0.021826679
24	0x97	0.0
25	0x97	0.0
26	0x97	0.0
27	0x86	-0.37105355
28	0x84	-0.4147069
29	0x8e	-0.19644012
30	0x8e	-0.19644012
31	0x8a	-0.28374684
32	0x91	-0.13096008
33	0x9c	0.10913339
34	0x9b	0.087306716
35	0x99	0.043653358
36	0x92	-0.10913339
37	0x93	-0.087306716
38	0x96	-0.021826679
39	0x90	-0.15278675
40	0x90	-0.15278675
41	0x93	-0.087306716
42	0x93	-0.087306716
43	0x94	-0.06548004
44	0x94	-0.06548004
45	0x96	-0.021826679
46	0x97	0.0
47	0x95	-0.043653358
48	0x96	-0.021826679
49	0x94	-0.06548004
50	0x97	0.0
51	0x98	0.021826679
52	0x97	0.0
53	0x99	0.043653358
54	0xa5	0.3055735
55	0x8c	-0.24009347
56	0x8a	-0.28374684
57	0xaf	0.5238403
58	0x89	-0.3055735
59	0x87	-0.34922686
60	0xa1	0.21826679
61	0x95	-0.043653358
62	0x91	-0.13096008
63	0xb3	0.611147
64	0x8a	-0.28374684
65	0x89	-0.3055735
66	0xbe	0.85124046
67	0x8a	-0.28374684
68	0x88	-0.32740018
69	0xa0	0.19644012
70	0x8f	-0.17461343
71	0x8f	-0.17461343
72	0xa4	0.28374684
73	0x91	-0.13096008
74	0x8e	-0.19644012
75	0xa5	0.3055735
76	0x8e	-0.19644012
77	0x8f	-0.17461343
78	0x94	-0.06548004
79	0x97	0.0
80	0x93	-0.087306716
81	0x97	0.0
82	0x97	0.0
83	0x97	0.0
84	0x97	0.0
85	0x97	0.0
86	0x97	0.0
87	0x97	0.0
88	0x97	0.0
89	0x97	0.0
90	0x97	0.0
91	0x97	0.0
92	0x97	0.0
93	0x97	0.0
94	0x97	0.0
95	0x97	0.0
96	0x97	0.0
97	0x97	0.0
98	0x97	0.0
99	0x97	0.0
100	0x97	0.0
101	0x97	0.0
102	0x97	0.0
103	0x97	0.0
104	0x97	0.0
105	0x97	0.0
106	0x97	0.0
107	0x97	0.0
108	0x9a	0.06548004
109	0x9d	0.13096008
110	0x98	0.021826679
111	0x8d	-0.21826679
112	0x8b	-0.26192015
113	0x93	-0.087306716
114	0xc2	0.9385472
115	0xd0	1.2441207
116	0xac	0.45836025
117	0x95	-0.043653358
118	0x97	0.0
119	0x94	-0.06548004
120	0x48	-1.7243077
121	0x24	-2.5100682
122	0x74	-0.7639338
123	0xba	0.7639338
124	0xc6	1.0258539
125	0xa8	0.37105355
126	0xa6	0.32740018
127	0xac	0.45836025
128	0x9e	0.15278675
129	0x6c	-0.9385472
130	0x69	-1.0040272
131	0x87	-0.34922686
132	0xb4	0.6329737
133	0xb5	0.65480036
134	0xa4	0.28374684
135	0x92	-0.10913339
136	0x93	-0.087306716
137	0x97	0.0
138	0xa4	0.28374684
139	0xb0	0.545667
140	0x9f	0.17461343
141	0x8c	-0.24009347
142	0x82	-0.45836025
143	0x92	-0.10913339
144	0x97	0.0
145	0x9b	0.087306716
146	0x99	0.043653358
147	0xb5	0.65480036
148	0xc6	1.0258539
149	0xa2	0.24009347
150	0x7a	-0.6329737
151	0x74	-0.7639338
152	0x8d	-0.21826679
153	0x9a	0.06548004
154	0x95	-0.043653358
155	0x99	0.043653358
156	0xad	0.48018694
157	0xad	0.48018694
158	0x9e	0.15278675
159	0x84	-0.4147069
160	0x89	-0.3055735
161	0x90	-0.15278675
162	0x96	-0.021826679
163	0x9b	0.087306716
164	0x98	0.021826679
165	0x80	-0.5020136
166	0x8a	-0.28374684
167	0x8a	-0.28374684
168	0x87	-0.34922686
169	0x8f	-0.17461343
170	0x8d	-0.21826679
171	0x97	0.0
172	0x9d	0.13096008
173	0x9d	0.13096008
174	0x82	-0.45836025
175	0x8e	-0.19644012
176	0x8f	-0.17461343
177	0x91	-0.13096008
178	0x99	0.043653358
179	0x98	0.021826679
180	0x9a	0.06548004
181	0x9a	0.06548004
182	0x98	0.021826679
183	0x90	-0.15278675
184	0x94	-0.06548004
185	0x94	-0.06548004
186	0x99	0.043653358
187	0x9a	0.06548004
188	0x94	-0.06548004
189	0x96	-0.021826679
190	0x95	-0.043653358
191	0xa1	0.21826679
192	0x95	-0.043653358
193	0x91	-0.13096008
194	0xa2	0.24009347
195	0x97	0.0
196	0x92	-0.10913339
197	0x9c	0.10913339
198	0x95	-0.043653358
199	0x95	-0.043653358
200	0xa2	0.24009347
201	0x97	0.0
202	0x93	-0.087306716
203	0xa4	0.28374684
204	0x99	0.043653358
205	0x93	-0.087306716
206	0x9b	0.087306716
207	0x94	-0.06548004
208	0x95	-0.043653358
209	0x9c	0.10913339
210	0x96	-0.021826679
211	0x93	-0.087306716
212	0x9e	0.15278675
213	0x9a	0.06548004
214	0x93	-0.087306716
215	0x98	0.021826679
216	0x97	0.0
217	0x97	0.0
218	0x96	-0.021826679
219	0x97	0.0
220	0x97	0.0
221	0x96	-0.021826679
222	0x97	0.0
223	0x96	-0.021826679
224	0x96	-0.021826679
225	0x97	0.0
226	0x97	0.0
227	0x96	-0.021826679
228	0x97	0.0
229	0x97	0.0
230	0x96	-0.021826679
231	0x97	0.0
232	0x97	0.0
233	0x96	-0.021826679
234	0x98	0.021826679
235	0x97	0.0
236	0x97	0.0
237	0x98	0.021826679
238	0x97	0.0
239	0x96	-0.021826679
240	0x98	0.021826679
241	0x97	0.0
242	0x96	-0.021826679
243	0x97	0.0
244	0x97	0.0
245	0x97	0.0
246	0x97	0.0
247	0x97	0.0
248	0x97	0.0
249	0x97	0.0
250	0x97	0.0
251	0x97	0.0
252	0x97	0.0
253	0x97	0.0
254	0x97	0.0
255	0x97	0.0

MobilenetV1/MobilenetV1/Conv2d_1_depthwise/depthwise_Fold;MobilenetV1/MobilenetV1/Conv2d_1_depthwise/weights_quant/FakeQuantWithMinMaxVars u1 [1, 3, 3, 32] scale=0.29219913 zero_point=110
0	0x6a	-1.1687965
1	0x71	0.8765974
2	0x6d	-0.29219913
3	0x57	-6.72058
4	0x69	-1.4609957
5	0x73	1.4609957
6	0x6d	-0.29219913
7	0x6e	0.0
8	0x75	2.045394
9	0xf5	39.446884
10	0x80	5.2595844
11	0x6e	0.0
12	0x6e	0.0
13	0x71	0.8765974
14	0x6f	0.29219913
15	0x6e	0.0
16	0x6e	0.0
17	0x6e	0.0
18	0x6e	0.0
19	0x6f	0.29219913
20	0x54	-7.5971775
21	0x6c	-0.58439827
22	0xe8	35.648293
23	0x6e	0.0
24	0x31	-17.824146
25	0x6d	-0.29219913
26	0x6e	0.0
27	0x79	3.2141905
28	0x6e	0.0
29	0x6d	-0.29219913
30	0x51	-8.473775
31	0x6f	0.29219913
32	0x6b	-0.8765974
33	0x73	1.4609957
34	0x6f	0.29219913
35	0x58	-6.428381
36	0x70	0.58439827
37	0x6a	-1.1687965
38	0x6e	0.0
39	0x6e	0.0
40	0x77	2.6297922
41	0xde	32.726303
42	0x65	-2.6297922
43	0x6f	0.29219913
44	0x6e	0.0
45	0x6a	-1.1687965
46	0x6d	-0.29219913
47	0x63	-3.2141905
48	0x6e	0.0
49	0x6e	0.0
50	0x6e	0.0
51	0x78	2.9219913
52	0x1f	-23.083733
53	0x6b	-0.8765974
54	0xe1	33.6029
55	0x6e	0.0
56	0x32	-17.531948
57	0x6f	0.29219913
58	0x6e	0.0
59	0x70	0.58439827
60	0x6d	-0.29219913
61	0x6d	-0.29219913
62	0x4b	-10.22697
63	0x6d	-0.29219913
64	0x69	-1.4609957
65	0x70	0.58439827
66	0x6e	0.0
67	0x55	-7.3049784
68	0x6e	0.0
69	0x6e	0.0
70	0x6e	0.0
71	0x6e	0.0
72	0x77	2.6297922
73	0xd7	30.680908
74	0x71	0.8765974
75	0x6e	0.0
76	0x6e	0.0
77	0x6f	0.29219913
78	0x6e	0.0
79	0x6f	0.29219913
80	0x6e	0.0
81	0x6e	0.0
82	0x6e	0.0
83	0x6e	0.0
84	0x01	-31.849705
85	0x6e	0.0
86	0xc2	24.544727
87	0x6e	0.0
88	0x3e	-14.025558
89	0x6d	-0.29219913
90	0x6e	0.0
91	0x43	-12.564563
92	0x6e	0.0
93	0x6e	0.0
94	0x5f	-4.382987
95	0x6e	0.0
96	0x6d	-0.29219913
97	0x6f	0.29219913
98	0x6f	0.29219913
99	0x64	-2.9219913
100	0x74	1.7531948
101	0x70	0.58439827
102	0x6d	-0.29219913
103	0x6f	0.29219913
104	0x78	2.9219913
105	0xe2	33.8951
106	0x75	2.045394
107	0x70	0.58439827
108	0x6e	0.0
109	0x67	-2.045394
110	0x6e	0.0
111	0x6f	0.29219913
112	0x6f	0.29219913
113	0x6d	-0.29219913
114	0x6e	0.0
115	0x6c	-0.58439827
116	0x52	-8.181576
117	0x6c	-0.58439827
118	0xff	42.368874
119	0x7a	3.5063896
120	0x8d	9.058173
121	0x69	-1.4609957
122	0x6d	-0.29219913
123	0x52	-8.181576
124	0x6d	-0.29219913
125	0x6e	0.0
126	0x4b	-10.22697
127	0x66	-2.337593
128	0x6c	-0.58439827
129	0x6f	0.29219913
130	0x70	0.58439827
131	0x5b	-5.5517836
132	0x6b	-0.8765974
133	0x6b	-0.8765974
134	0x6e	0.0
135	0x74	1.7531948
136	0x75	2.045394
137	0xd1	28.927715
138	0x87	7.3049784
139	0x69	-1.4609957
140	0x6d	-0.29219913
141	0x7e	4.675186
142	0x6e	0.0
143	0x77	2.6297922
144	0x70	0.58439827
145	0x6c	-0.58439827
146	0x6d	-0.29219913
147	0x66	-2.337593
148	0x5b	-5.5517836
149	0x6c	-0.58439827
150	0xd8	30.973108
151	0x6e	0.0
152	0xae	18.700745
153	0x6b	-0.8765974
154	0x6b	-0.8765974
155	0x48	-11.103567
156	0x71	0.8765974
157	0x6d	-0.29219913
158	0x3a	-15.194355
159	0x64	-2.9219913
160	0x6b	-0.8765974
161	0x70	0.58439827
162	0x6e	0.0
163	0x5f	-4.382987
164	0x6e	0.0
165	0x6f	0.29219913
166	0x6e	0.0
167	0x6e	0.0
168	0x78	2.9219913
169	0xb6	21.038338
170	0x71	0.8765974
171	0x6f	0.29219913
172	0x6e	0.0
173	0x6a	-1.1687965
174	0x6e	0.0
175	0x6e	0.0
176	0x6e	0.0
177	0x6d	-0.29219913
178	0x6e	0.0
179	0x6e	0.0
180	0x43	-12.564563
181	0x6e	0.0
182	0xaf	18.992943
183	0x62	-3.5063896
184	0x6a	-1.1687965
185	0x6f	0.29219913
186	0x6e	0.0
187	0x2e	-18.700745
188	0x6e	0.0
189	0x6e	0.0
190	0x47	-11.395766
191	0x6f	0.29219913
192	0x6a	-1.1687965
193	0x6a	-1.1687965
194	0x6e	0.0
195	0x61	-3.7985888
196	0x6e	0.0
197	0x6d	-0.29219913
198	0x6d	-0.29219913
199	0x6e	0.0
200	0x70	0.58439827
201	0x84	6.428381
202	0x74	1.7531948
203	0x6e	0.0
204	0x6e	0.0
205	0x70	0.58439827
206	0x6d	-0.29219913
207	0x6d	-0.29219913
208	0x6e	0.0
209	0x6e	0.0
210	0x6e	0.0
211	0x6e	0.0
212	0xa4	15.778753
213	0x6d	-0.29219913
214	0xb3	20.16174
215	0x72	1.1687965
216	0xba	22.207134
217	0x6d	-0.29219913
218	0x6f	0.29219913
219	0x49	-10.811368
220	0x6e	0.0
221	0x6e	0.0
222	0x3d	-14.317758
223	0x76	2.337593
224	0x6d	-0.29219913
225	0x68	-1.7531948
226	0x6e	0.0
227	0x5a	-5.8439827
228	0x6e	0.0
229	0x6f	0.29219913
230	0x6d	-0.29219913
231	0x6e	0.0
232	0x73	1.4609957
233	0x74	1.7531948
234	0x96	11.687965
235	0x6f	0.29219913
236	0x6e	0.0
237	0x6e	0.0
238	0x6e	0.0
239	0x70	0.58439827
240	0x6f	0.29219913
241	0x6d	-0.29219913
242	0x6e	0.0
243	0x6e	0.0
244	0x72	1.1687965
245	0x6d	-0.29219913
246	0xab	17.824146
247	0x6f	0.29219913
248	0xb2	19.869541
249	0x6f	0.29219913
250	0x6e	0.0
251	0x2c	-19.285143
252	0x6d	-0.29219913
253	0x6e	0.0
254	0x33	-17.23975
255	0x78	2.9219913

MobilenetV1/MobilenetV1/Conv2d_1_pointwise/Conv2D_Fold;MobilenetV1/MobilenetV1/Conv2d_1_pointwise/weights_quant/FakeQuantWithMinMaxVars u1 [64, 1, 1, 32] scale=0.03042095 zero_point=121
0	0x79	0.0
1	0x7a	0.03042095
2	0x7b	0.0608419
3	0x79	0.0
4	0x79	0.0
5	0x7a	0.03042095
6	0x79	0.0
7	0x7b	0.0608419
8	0x79	0.0
9	0x79	0.0
10	0x79	0.0
11	0x76	-0.09126285
12	0x7b	0.0608419
13	0x77	-0.0608419
14	0x79	0.0
15	0x6f	-0.3042095
16	0x78	-0.03042095
17	0x79	0.0
18	0x79	0.0
19	0x79	0.0
20	0x79	0.0
21	0x72	-0.21294665
22	0x79	0.0
23	0x7b	0.0608419
24	0x79	0.0
25	0x79	0.0
26	0x79	0.0
27	0x79	0.0
28	0x7b	0.0608419
29	0x75	-0.1216838
30	0x79	0.0
31	0x7f	0.1825257
32	0x79	0.0
33	0x79	0.0
34	0x77	-0.0608419
35	0x79	0.0
36	0x78	-0.03042095
37	0x9a	1.0038913
38	0x78	-0.03042095
39	0x78	-0.03042095
40	0x79	0.0
41	0x79	0.0
42	0x79	0.0
43	0x77	-0.0608419
44	0x76	-0.09126285
45	0x77	-0.0608419
46	0x79	0.0
47	0x7a	0.03042095
48	0x79	0.0
49	0x78	-0.03042095
50	0x79	0.0
51	0x79	0.0
52	0x79	0.0
53	0x7d	0.1216838
54	0x79	0.0
55	0x7a	0.03042095
56	0x79	0.0
57	0x7b	0.0608419
58	0x75	-0.1216838
59	0x79	0.0
60	0x7c	0.09126285
61	0x7d	0.1216838
62	0x79	0.0
63	0x78	-0.03042095
64	0x79	0.0
65	0x78	-0.03042095
66	0x78	-0.03042095
67	0x79	0.0
68	0x66	-0.57799804
69	0x72	-0.21294665
70	0x79	0.0
71	0x7a	0.03042095
72	0x79	0.0
73	0x79	0.0
74	0x79	0.0
75	0x58	-1.0038913
76	0x79	0.0
77	0x77	-0.0608419
78	0x79	0.0
79	0x7f	0.1825257
80	0x79	0.0
81	0x78	-0.03042095
82	0x79	0.0
83	0x75	-0.1216838
84	0x79	0.0
85	0x7d	0.1216838
86	0x79	0.0
87	0x78	-0.03042095
88	0x79	0.0
89	0x79	0.0
90	0x78	-0.03042095
91	0x79	0.0
92	0x66	-0.57799804
93	0x7a	0.03042095
94	0x79	0.0
95	0x7d	0.1216838
96	0x79	0.0
97	0x78	-0.03042095
98	0x82	0.27378854
99	0x79	0.0
100	0x79	0.0
101	0x77	-0.0608419
102	0x79	0.0
103	0x83	0.3042095
104	0x79	0.0
105	0x79	0.0
106	0x79	0.0
107	0x76	-0.09126285
108	0x76	-0.09126285
109	0x79	0.0
110	0x79	0.0
111	0x79	0.0
112	0x7e	0.15210475
113	0x70	-0.27378854
114	0x7c	0.09126285
115	0x7a	0.03042095
116	0x79	0.0
117	0x7a	0.03042095
118	0x79	0.0
119	0x7d	0.1216838
120	0x79	0.0
121	0x79	0.0
122	0x83	0.3042095
123	0x79	0.0
124	0x79	0.0
125	0x77	-0.0608419
126	0x79	0.0
127	0x79	0.0
128	0x79	0.0
129	0x7a	0.03042095
130	0x72	-0.21294665
131	0x79	0.0
132	0x79	0.0
133	0x9a	1.0038913
134	0x79	0.0
135	0x75	-0.1216838
136	0x79	0.0
137	0x79	0.0
138	0x79	0.0
139	0x74	-0.15210475
140	0x7b	0.0608419
141	0x7d	0.1216838
142	0x79	0.0
143	0x77	-0.0608419
144	0x7b	0.0608419
145	0x7a	0.03042095
146	0x78	-0.03042095
147	0x79	0.0
148	0x79	0.0
149	0x78	-0.03042095
150	0x79	0.0
151	0x7d	0.1216838
152	0x79	0.0
153	0x7c	0.09126285
154	0x79	0.0
155	0x79	0.0
156	0x7d	0.1216838
157	0x77	-0.0608419
158	0x79	0.0
159	0x78	-0.03042095
160	0x79	0.0
161	0x79	0.0
162	0x6b	-0.4258933
163	0x79	0.0
164	0x78	-0.03042095
165	0x78	-0.03042095
166	0x7c	0.09126285
167	0x7b	0.0608419
168	0x79	0.0
169	0x79	0.0
170	0x79	0.0
171	0x78	-0.03042095
172	0x60	-0.76052374
173	0x58	-1.0038913
174	0x79	0.0
175	0x7a	0.03042095
176	0x76	-0.09126285
177	0xb4	1.794836
178	0x4c	-1.3689427
179	0x78	-0.03042095
180	0x79	0.0
181	0x77	-0.0608419
182	0x79	0.0
183	0x78	-0.03042095
184	0x79	0.0
185	0x75	-0.1216838
186	0xb1	1.7035732
187	0x79	0.0
188	0x75	-0.1216838
189	0x67	-0.5475771
190	0x79	0.0
191	0x7e	0.15210475
192	0x79	0.0
193	0x7b	0.0608419
194	0x6b	-0.4258933
195	0x79	0.0
196	0x76	-0.09126285
197	0x89	0.4867352
198	0x79	0.0
199	0x71	-0.2433676
200	0x79	0.0
201	0x79	0.0
202	0x79	0.0
203	0x7d	0.1216838
204	0x7e	0.15210475
205	0x79	0.0
206	0x79	0.0
207	0x78	-0.03042095
208	0x71	-0.2433676
209	0x7a	0.03042095
210	0x7e	0.15210475
211	0x7a	0.03042095
212	0x79	0.0
213	0x78	-0.03042095
214	0x79	0.0
215	0x70	-0.27378854
216	0x79	0.0
217	0x79	0.0
218	0x7a	0.03042095
219	0x79	0.0
220	0x7d	0.1216838
221	0x76	-0.09126285
222	0x79	0.0
223	0x7b	0.0608419
224	0x79	0.0
225	0x7e	0.15210475
226	0x77	-0.0608419
227	0x79	0.0
228	0x7e	0.15210475
229	0x7a	0.03042095
230	0x79	0.0
231	0x78	-0.03042095
232	0x79	0.0
233	0x79	0.0
234	0x79	0.0
235	0x78	-0.03042095
236	0x78	-0.03042095
237	0x78	-0.03042095
238	0x79	0.0
239	0xa8	1.4297847
240	0x79	0.0
241	0x77	-0.0608419
242	0x79	0.0
243	0x77	-0.0608419
244	0x79	0.0
245	0x75	-0.1216838
246	0x79	0.0
247	0x79	0.0
248	0x79	0.0
249	0x7a	0.03042095
250	0x79	0.0
251	0x79	0.0
252	0x82	0.27378854
253	0x79	0.0
254	0x79	0.0
255	0x91	0.7301028
