edgetpu/retrain-backprop/trimmed_extractor_until-Conv2d_1_depthwise_layer.tflite (tflite, 4600 bytes, 3 tensors)

MobilenetV1/MobilenetV1/Conv2d_1_depthwise/BatchNorm_Fold/bias f4 [32]
00000000: 54ea 95bf c357 173f ad28 e53e 90c4 d8be
00000010: c294 c63f 7a1e 723f b457 b63e 3861 37c0
00000020: 3747 5abf 2f2b 49bf 0101 76bf a4ed 8640
00000030: 3b6a 4040 255e 8abf 739a 6cbe acbc 1f40
00000040: 7063 043c 0e34 c440 39fd 963f b574 0a3f
00000050: 4b47 46bf ee3f 9640 f169 80bf 5202 e63f
00000060: ed3a 453e 9ac2 e73f 50bb e240 6dce 68bf
00000070: 4e32 2f40 664c 1b3f 1f6e 73bf c440 8340
-1.1712136 0.5911829 0.44757596 -0.42337465 1.5514147 0.94577754 0.35613787 -2.8653088
-0.85264915 -0.7858152 -0.9609528 4.216509 3.0064838 -1.0809981 -0.23105793 2.4958906
0.008080348 6.1313543 1.1796027 0.5408433 -0.77452534 4.695304 -1.0032331 1.7969458
0.1926076 1.8106263 7.0853653 -0.9093998 2.7374454 0.6066345 -0.95089906 4.101656

MobilenetV1/MobilenetV1/Conv2d_1_depthwise/depthwise_Fold;MobilenetV1/MobilenetV1/Conv2d_1_depthwise/weights_quant/FakeQuantWithMinMaxVars f4 [1, 3, 3, 32]
00000000: 209b 95bf b068 603f 209b 95be fe0e d7c0
00000010: e801 bbbf e801 bb3f 209b 95be 0000 0000
00000020: bce7 0240 9cc9 1d42 844e a840 0000 0000
00000030: 0000 0000 b068 603f 209b 953e 0000 0000
00000040: 0000 0000 0000 0000 0000 0000 209b 953e
00000050: 141c f3c0 209b 15bf da97 0e42 0000 0000
00000060: da97 8ec1 209b 95be 0000 0000 4cb5 4d40
00000070: 0000 0000 209b 95be 9594 07c1 209b 953e
00000080: b068 60bf e801 bb3f 209b 953e 4cb5 cdc0
00000090: 209b 153f 209b 95bf 0000 0000 0000 0000
000000a0: 844e 2840 bce7 0242 844e 28c0 209b 953e
000000b0: 0000 0000 209b 95bf 209b 95be 4cb5 4dc0
000000c0: 0000 0000 0000 0000 0000 0000 e801 3b40
000000d0: 7cab b8c1 b068 60bf 5f69 0642 0000 0000
000000e0: 6e41 8cc1 209b 953e 0000 0000 209b 153f
000000f0: 209b 95be 209b 95be aba1 23c1 209b 95be
00000100: e801 bbbf 209b 153f 0000 0000 62c2 e9c0
00000110: 0000 0000 0000 0000 0000 0000 0000 0000
00000120: 844e 2840 8072 f541 b068 603f 0000 0000
00000130: 0000 0000 209b 953e 0000 0000 209b 953e
00000140: 0000 0000 0000 0000 0000 0000 0000 0000
00000150: 32cc fec1 0000 0000 9a5b c441 0000 0000
00000160: b068 60c1 209b 95be 0000 0000 7308 49c1
00000170: 0000 0000 0000 0000 6e41 8cc0 0000 0000
00000180: 209b 95be 209b 953e 209b 953e e801 3bc0
00000190: b068 e03f 209b 153f 209b 95be 209b 953e
000001a0: e801 3b40 9594 0742 bce7 0240 209b 153f
000001b0: 0000 0000 bce7 02c0 0000 0000 209b 953e
000001c0: 209b 953e 209b 95be 0000 0000 209b 15bf
000001d0: bce7 02c1 209b 15bf ba79 2942 b068 6040
000001e0: 47ee 1041 e801 bbbf 209b 95be bce7 02c1
000001f0: 209b 95be 0000 0000 aba1 23c1 209b 15c0
00000200: 209b 15bf 209b 953e 209b 153f 36a8 b1c0
00000210: b068 60bf b068 60bf 0000 0000 b068 e03f
00000220: bce7 0240 f66b e741 62c2 e940 e801 bbbf
00000230: 209b 95be 209b 9540 0000 0000 844e 2840
00000240: 209b 153f 209b 15bf 209b 95be 209b 15c0
00000250: 36a8 b1c0 209b 15bf edc8 f741 0000 0000
00000260: 209b 9541 b068 60bf b068 60bf 36a8 31c1
00000270: b068 603f 209b 95be 141c 73c1 e801 3bc0
00000280: b068 60bf 209b 153f 0000 0000 6e41 8cc0
00000290: 0000 0000 209b 953e 0000 0000 0000 0000
000002a0: e801 3b40 844e a841 b068 603f 209b 953e
000002b0: 0000 0000 209b 95bf 0000 0000 0000 0000
000002c0: 0000 0000 209b 95be 0000 0000 0000 0000
000002d0: 7308 49c1 0000 0000 8cf1 9741 b068 60c0
000002e0: 209b 95bf 209b 953e 0000 0000 209b 95c1
000002f0: 0000 0000 0000 0000 0f55 36c1 209b 953e
00000300: 209b 95bf 209b 95bf 0000 0000 141c 73c0
00000310: 0000 0000 209b 95be 209b 95be 0000 0000
00000320: 209b 153f 4cb5 cd40 b068 e03f 0000 0000
00000330: 0000 0000 209b 153f 209b 95be 209b 95be
00000340: 0000 0000 0000 0000 0000 0000 0000 0000
00000350: c675 7c41 209b 95be 3e4b a141 209b 953f
00000360: 36a8 b141 209b 95be 209b 953e 5dfb 2cc1
00000370: 0000 0000 0000 0000 8915 65c1 209b 1540
00000380: 209b 95be b068 e0bf 0000 0000 e801 bbc0
00000390: 0000 0000 209b 953e 209b 95be 0000 0000
000003a0: e801 bb3f b068 e03f e801 3b41 209b 953e
000003b0: 0000 0000 0000 0000 0000 0000 209b 153f
000003c0: 209b 953e 209b 95be 0000 0000 0000 0000
000003d0: 209b 953f 209b 95be da97 8e41 209b 953e
000003e0: d2f4 9e41 209b 953e 0000 0000 f947 9ac1
000003f0: 209b 95be 0000 0000 02eb 89c1 e801 3b40
-1.1687965 0.8765974 -0.29219913 -6.72058 -1.4609957 1.4609957 -0.29219913 0.0
2.045394 39.446884 5.2595844 0.0 0.0 0.8765974 0.29219913 0.0
0.0 0.0 0.0 0.29219913 -7.5971775 -0.58439827 35.648293 0.0
-17.824146 -0.29219913 0.0 3.2141905 0.0 -0.29219913 -8.473775 0.29219913
-0.8765974 1.4609957 0.29219913 -6.428381 0.58439827 -1.1687965 0.0 0.0
2.6297922 32.726303 -2.6297922 0.29219913 0.0 -1.1687965 -0.29219913 -3.2141905
0.0 0.0 0.0 2.9219913 -23.083733 -0.8765974 33.6029 0.0
-17.531948 0.29219913 0.0 0.58439827 -0.29219913 -0.29219913 -10.22697 -0.29219913
-1.4609957 0.58439827 0.0 -7.3049784 0.0 0.0 0.0 0.0
2.6297922 30.680908 0.8765974 0.0 0.0 0.29219913 0.0 0.29219913
0.0 0.0 0.0 0.0 -31.849705 0.0 24.544727 0.0
-14.025558 -0.29219913 0.0 -12.564563 0.0 0.0 -4.382987 0.0
-0.29219913 0.29219913 0.29219913 -2.9219913 1.7531948 0.58439827 -0.29219913 0.29219913
2.9219913 33.8951 2.045394 0.58439827 0.0 -2.045394 0.0 0.29219913
0.29219913 -0.29219913 0.0 -0.58439827 -8.181576 -0.58439827 42.368874 3.5063896
9.058173 -1.4609957 -0.29219913 -8.181576 -0.29219913 0.0 -10.22697 -2.337593
-0.58439827 0.29219913 0.58439827 -5.5517836 -0.8765974 -0.8765974 0.0 1.7531948
2.045394 28.927715 7.3049784 -1.4609957 -0.29219913 4.675186 0.0 2.6297922
0.58439827 -0.58439827 -0.29219913 -2.337593 -5.5517836 -0.58439827 30.973108 0.0
18.700745 -0.8765974 -0.8765974 -11.103567 0.8765974 -0.29219913 -15.194355 -2.9219913
-0.8765974 0.58439827 0.0 -4.382987 0.0 0.29219913 0.0 0.0
2.9219913 21.038338 0.8765974 0.29219913 0.0 -1.1687965 0.0 0.0
0.0 -0.29219913 0.0 0.0 -12.564563 0.0 18.992943 -3.5063896
-1.1687965 0.29219913 0.0 -18.700745 0.0 0.0 -11.395766 0.29219913
-1.1687965 -1.1687965 0.0 -3.7985888 0.0 -0.29219913 -0.29219913 0.0
0.58439827 6.428381 1.7531948 0.0 0.0 0.58439827 -0.29219913 -0.29219913
0.0 0.0 0.0 0.0 15.778753 -0.29219913 20.16174 1.1687965
22.207134 -0.29219913 0.29219913 -10.811368 0.0 0.0 -14.317758 2.337593
-0.29219913 -1.7531948 0.0 -5.8439827 0.0 0.29219913 -0.29219913 0.0
1.4609957 1.7531948 11.687965 0.29219913 0.0 0.0 0.0 0.58439827
0.29219913 -0.29219913 0.0 0.0 1.1687965 -0.29219913 17.824146 0.29219913
19.869541 0.29219913 0.0 -19.285143 -0.29219913 0.0 -17.23975 2.9219913

MobilenetV1/MobilenetV1/Conv2d_0/Conv2D_Fold;MobilenetV1/MobilenetV1/Conv2d_0/weights_quant/FakeQuantWithMinMaxVars u1 [32, 3, 3, 3] scale=0.021826679 zero_point=151
00000000: 9797 9797 9697 9796 9697 9797 9797 9797
00000010: 9696 9797 9797 9796 9797 9786 848e 8e8a
00000020: 919c 9b99 9293 9690 9093 9394 9496 9795
00000030: 9694 9798 9799 a58c 8aaf 8987 a195 91b3
00000040: 8a89 be8a 88a0 8f8f a491 8ea5 8e8f 9497
00000050: 9397 9797 9797 9797 9797 9797 9797 9797
00000060: 9797 9797 9797 9797 9797 9797 9a9d 988d
00000070: 8b93 c2d0 ac95 9794 4824 74ba c6a8 a6ac
00000080: 9e6c 6987 b4b5 a492 9397 a4b0 9f8c 8292
00000090: 979b 99b5 c6a2 7a74 8d9a 9599 adad 9e84
000000a0: 8990 969b 9880 8a8a 878f 8d97 9d9d 828e
000000b0: 8f91 9998 9a9a 9890 9494 999a 9496 95a1
000000c0: 9591 a297 929c 9595 a297 93a4 9993 9b94
000000d0: 959c 9693 9e9a 9398 9797 9697 9796 9796
000000e0: 9697 9796 9797 9697 9796 9897 9798 9796
000000f0: 9897 9697 9797 9797 9797 9797 9797 9797
0.0 0.0 0.0 0.0 -0.021826679 0.0 0.0 -0.021826679
-0.021826679 0.0 0.0 0.0 0.0 0.0 0.0 0.0
-0.021826679 -0.021826679 0.0 0.0 0.0 0.0 0.0 -0.021826679
0.0 0.0 0.0 -0.37105355 -0.4147069 -0.19644012 -0.19644012 -0.28374684
-0.13096008 0.10913339 0.087306716 0.043653358 -0.10913339 -0.087306716 -0.021826679 -0.15278675
-0.15278675 -0.087306716 -0.087306716 -0.06548004 -0.06548004 -0.021826679 0.0 -0.043653358
-0.021826679 -0.06548004 0.0 0.021826679 0.0 0.043653358 0.3055735 -0.24009347
-0.28374684 0.5238403 -0.3055735 -0.34922686 0.21826679 -0.043653358 -0.13096008 0.611147
-0.28374684 -0.3055735 0.85124046 -0.28374684 -0.32740018 0.19644012 -0.17461343 -0.17461343
0.28374684 -0.13096008 -0.19644012 0.3055735 -0.19644012 -0.17461343 -0.06548004 0.0
-0.087306716 0.0 0.0 0.0 0.0 0.0 0.0 0.0
0.0 0.0 0.0 0.0 0.0 0.0 0.0 0.0
0.0 0.0 0.0 0.0 0.0 0.0 0.0 0.0
0.0 0.0 0.0 0.0 0.06548004 0.13096008 0.021826679 -0.21826679
-0.26192015 -0.087306716 0.9385472 1.2441207 0.45836025 -0.043653358 0.0 -0.06548004
-1.7243077 -2.5100682 -0.7639338 0.7639338 1.0258539 0.37105355 0.32740018 0.45836025
0.15278675 -0.9385472 -1.0040272 -0.34922686 0.6329737 0.65480036 0.28374684 -0.10913339
-0.087306716 0.0 0.28374684 0.545667 0.17461343 -0.24009347 -0.45836025 -0.10913339
0.0 0.087306716 0.043653358 0.65480036 1.0258539 0.24009347 -0.6329737 -0.7639338
-0.21826679 0.06548004 -0.043653358 0.043653358 0.48018694 0.48018694 0.15278675 -0.4147069
-0.3055735 -0.15278675 -0.021826679 0.087306716 0.021826679 -0.5020136 -0.28374684 -0.28374684
-0.34922686 -0.17461343 -0.21826679 0.0 0.13096008 0.13096008 -0.45836025 -0.19644012
-0.17461343 -0.13096008 0.043653358 0.021826679 0.06548004 0.06548004 0.021826679 -0.15278675
-0.06548004 -0.06548004 0.043653358 0.06548004 -0.06548004 -0.021826679 -0.043653358 0.21826679
-0.043653358 -0.13096008 0.24009347 0.0 -0.10913339 0.10913339 -0.043653358 -0.043653358
0.24009347 0.0 -0.087306716 0.28374684 0.043653358 -0.087306716 0.087306716 -0.06548004
-0.043653358 0.10913339 -0.021826679 -0.087306716 0.15278675 0.06548004 -0.087306716 0.021826679
0.0 0.0 -0.021826679 0.0 0.0 -0.021826679 0.0 -0.021826679
-0.021826679 0.0 0.0 -0.021826679 0.0 0.0 -0.021826679 0.0
0.0 -0.021826679 0.021826679 0.0 0.0 0.021826679 0.0 -0.021826679
0.021826679 0.0 -0.021826679 0.0 0.0 0.0 0.0 0.0
0.0 0.0 0.0 0.0 0.0 0.0 0.0 0.0
