edgetpu/retrain-backprop/trimmed_extractor_until_Conv2d_13_pointwise_BatchNorm_Fold_bias.tflite (tflite, 4784 bytes, 1 tensors)

MobilenetV1/MobilenetV1/Conv2d_13_pointwise/BatchNorm_Fold/bias f4 [1024]
1.0738547 6.265229 4.392763 0.8272407 -0.21966195 7.882146 4.6522713 2.3159215
1.6585143 2.4035459 4.511371 1.4716089 5.103085 5.553609 -1.1828884 -0.32639718
3.2514572 -0.8042371 0.023059368 1.3243389 1.5636916 -3.9839454 0.48582268 6.092754
6.543026 -1.1288996 -0.8096788 -2.3412802 5.708165 1.5583446 -0.28905535 -0.6829922
4.0535145 0.41905951 5.2046394 3.8556104 0.3875003 5.5024137 -8.093035 9.240569
4.7260394 -2.118466 3.639178 6.3130827 -1.92993 -0.13931823 -1.225629 -0.20695662
8.849782 4.573058 1.0282409 4.343283 2.5422206 -0.100832224 2.3262746 7.4260263
-3.1311631 3.7522817 2.99417 -1.3520843 -4.5283356 5.216136 2.2825432 2.0826948
0.08841586 2.2466388 3.8781106 -0.31271338 1.0991404 3.6382062 -1.0157266 -0.350834
2.8576121 -1.3892949 0.83386207 -11.155353 -0.31266618 -4.429865 -2.1383612 3.6331427
-2.9864774 1.6288099 -1.4016315 -1.4081001 -0.55723405 -0.6023047 -2.746072 1.6222723
7.601214 1.8307123 4.5079823 5.415478 6.1712217 -5.2194653 3.0630264 -0.98645675
-8.459719 7.132386 1.8605847 -4.5016527 0.12403512 2.0125263 5.8781586 -3.3589964
1.3294015 -1.784191 -3.8466234 0.04329157 -1.6148446 3.6866832 -1.3238922 11.220044
0.9387133 0.87251997 1.3635118 3.8245678 5.583358 4.1638465 -2.8684275 2.3108082
-1.862045 -4.0463943 -0.8497493 0.53854394 -1.5095453 5.082713 -6.0349007 5.6967506
-5.08121 0.528384 0.2964325 -0.51785254 8.799724 -4.2727222 0.7766626 2.0339534
0.9986799 3.8062036 -0.94026864 7.3580875 1.168983 -1.435629 -4.3023643 -0.006086588
1.4101009 3.1038742 0.0009379387 3.9306045 -0.82041407 0.4672227 -1.0096431 2.6341379
5.314888 2.5057108 4.5008907 4.7169895 2.3402207 2.2090924 0.78400373 6.47223
-2.9609485 2.4644551 -1.0422813 4.432967 6.1001863 0.12792706 1.862881 3.1498709
8.287208 6.433228 0.0032794476 0.58090854 5.1503754 4.3266964 2.4075058 1.391629
0.7953496 1.3269277 10.106185 5.5599184 0.072144985 0.33887172 4.8208604 -1.061648
3.9511495 1.9075603 4.0295506 -6.441515 4.1507654 5.191304 -3.7580667 3.025116
0.87941957 8.818756 -2.810308 -5.8151174 0.722543 -4.8070374 4.959196 -3.0294034
3.246532 4.916554 -3.8742328 3.7405617 3.893275 -0.07284951 3.9282846 -0.029251337
1.3752742 1.1154616 2.0646517 3.5358057 0.6229305 -0.32370877 2.8653889 6.2400723
3.4674942 -0.99884176 0.94613624 2.7919645 0.34519935 4.381064 3.0243018 2.2786593
-2.5730445 2.5197246 5.234988 3.985008 -1.77532 5.939892 -2.6053796 6.960225
-0.9351469 5.5266695 -2.7593482 3.9329967 4.2261066 1.0903378 1.9113638 0.21345305
4.239543 4.549014 -2.317531 2.87043 6.6622605 -4.3643274 3.840891 1.7476857
5.8472195 3.1447506 2.9621515 -0.6933501 0.57249975 0.08158779 -0.5668057 1.7656367
00000000: 1274 893f c27c c840 8491 8c40 0cc6 533f
00000010: 10ef 60be 8a3a fc40 68df 9440 0f38 1440
00000020: 324a d43f b2d3 1940 275d 9040 ae5d bc3f
00000030: 794c a340 2ab7 b140 e368 97bf 881d a7be
00000040: e017 5040 7ce2 4dbf 00e7 bc3c f083 a93f
00000050: 0c27 c83f f6f8 7ec0 c0bd f83e d7f7 c240
00000060: 7860 d140 c87f 90bf 1c47 4fbf 89d7 15c0
00000070: 4aa9 b640 d677 c73f 10ff 93be 94d8 2ebf
00000080: 64b6 8140 f88e d63e 688c a640 52c2 7640
00000090: 7066 c63e c613 b040 127d 01c1 5fd9 1341
000000a0: b73b 9740 f294 07c0 4be8 6840 c604 ca40
000000b0: f207 f7bf 70a9 0ebe 69e1 9cbf 70ec 53be
000000c0: b598 0d41 7e56 9240 669d 833f 2dfc 8a40
000000d0: beb3 2240 2081 cebd afe1 1440 02a2 ed40
000000e0: fa64 48c0 6225 7040 7ba0 3f40 1911 adbf
000000f0: 20e8 90c0 96ea a640 3015 1240 df4a 0540
00000100: 6013 b53d eec8 0f40 f732 7840 f81b a0be
00000110: a2b0 8c3f 5fd8 6840 5403 82bf 84a0 b3be
00000120: 1ee3 3640 6ad4 b1bf fc77 553f 537c 32c1
00000130: c815 a0be 74c1 8dc0 e9da 08c0 6985 6840
00000140: 7222 3fc0 d87c d03f a968 b3bf a03c b4bf
00000150: e4a6 0ebf a430 1abf a5bf 2fc0 9ea6 cf3f
00000160: 253d f340 c854 ea3f 6441 9040 994b ad40
00000170: a67a c540 dc05 a7c0 a008 4440 6e88 7cbf
00000180: 025b 07c1 823c e440 a427 ee3f 8a0d 90c0
00000190: 2006 fe3d 3bcd 0040 e019 bc40 ccf9 56c0
000001a0: d429 aa3f 5f60 e4bf 142f 76c0 8052 313d
000001b0: 3ab3 cebf 9ef2 6b40 4d75 a9bf 4d85 3341
000001c0: 844f 703f 785d 5f3f 8e87 ae3f b8c5 7440
000001d0: deaa b240 3b3e 8540 5194 37c0 48e4 1340
000001e0: 7e57 eebf 107c 81c0 2c89 59bf 04de 093f
000001f0: c838 c1bf 96a5 a240 e81d c1c0 c84b b640
00000200: 4699 a2c0 2c44 073f 00c6 973e fc91 04bf
00000210: abcb 0c41 24ba 88c0 5cd3 463f 4b2c 0240
00000220: 7ca9 7f3f d798 7340 72b5 70bf 7475 eb40
00000230: 3ca1 953f b1c2 b7bf f8ac 89c0 0072 c7bb
00000240: 307e b43f e0a5 4640 00e0 753a 068f 7b40
00000250: a806 52bf d037 ef3e fc3b 81bf b795 2840
00000260: 9013 aa40 915d 2040 4c07 9040 94f1 9640
00000270: 2dc6 1540 c561 0d40 78b4 483f 821c cf40
00000280: 2e80 3dc0 a2b9 1d40 7969 85bf deda 8d40
00000290: ba34 c340 50ff 023e e272 ee3f 7c97 4940
000002a0: 6798 0441 01dd cd40 00ec 563b 6cb6 143f
000002b0: e0cf a440 4c74 8a40 9314 1a40 e620 b23f
000002c0: 089c 4b3f c4d8 a93f efb2 2141 daea b140
000002d0: c0c0 933d 9880 ad3e 7d44 9a40 15e4 87bf
000002e0: a2df 7c40 f02a f43f 14f2 8040 e420 cec0
000002f0: 12d3 8440 2a1f a640 2a84 70c0 809b 4140
00000300: a421 613f a019 0d41 16dc 33c0 7115 bac0
00000310: 94f8 383f 40d3 99c0 bcb1 9e40 bfe1 41c0
00000320: 2ec7 4f40 6954 9d40 6ef3 77c0 5d65 6f40
00000330: 6b2b 7940 2032 95bd 0469 7b40 80a0 efbc
00000340: fc08 b03f 72c7 8e3f 4123 0440 a44a 6240
00000350: 6078 1f3f 28bd a5be 8862 3740 acae c740
00000360: 6deb 5d40 18b4 7fbf fc35 723f 8caf 3240
00000370: f8bd b03e ad31 8c40 298e 4140 8ed5 1140
00000380: c3ac 24c0 2b43 2140 0685 a740 5f0a 7f40
00000390: b03d e3bf 9813 be40 8abe 26c0 2aba de40
000003a0: ca65 6fbf 7ada b040 2999 30c0 38b6 7b40
000003b0: 443c 8740 3090 8b3f 92a7 f43f 7093 5a3e
000003c0: 56aa 8740 8691 9140 6e52 14c0 20b5 3740
000003d0: 3d31 d540 92a8 8bc0 28d1 7540 2ab4 df3f
000003e0: 6c1c bb40 9843 4940 e493 3d40 647f 31bf
000003f0: 588f 123f 8017 a73d 2e1a 11bf 6200 e23f
