edgetpu/retrain-backprop/trimmed_extractors/conv_pw_2_relu.tflite (tflite, 25632 bytes, 5 tensors)

tfl.pseudo_qconst1 i1 [128, 1, 1, 64]
-54 3 0 -7 64 -12 -8 -24
-11 -83 14 4 11 -7 18 119
-1 -14 -2 -21 -2 6 17 -21
0 -113 18 4 3 0 -10 53
-16 -4 13 32 -28 6 -29 -127
45 7 10 10 -23 -55 -5 4
21 4 -13 -9 -9 -116 13 -8
19 0 -24 25 11 -35 -8 8
-14 35 71 36 -72 -6 2 3
49 -11 3 9 9 63 53 6
14 -3 -1 1 -19 -29 87 59
0 -10 44 5 -10 0 16 3
70 46 0 -1 -1 0 -14 5
-8 5 38 4 -10 5 5 -127
48 16 1 -22 -6 11 3 -43
-39 0 -22 0 -4 -4 -19 45
17 -18 -9 -10 -17 -15 -6 27
1 -13 37 -49 -8 -46 -1 -11
15 -4 -4 21 3 56 46 -5
0 27 -11 -13 -38 0 13 26
5 2 22 -9 -2 -20 -127 22
-17 -1 -21 -13 -73 -39 -47 3
3 -6 37 30 4 -1 21 8
-17 0 -51 43 -3 15 -58 -24
-4 2 -2 1 -4 13 2 6
-2 -12 13 -1 -23 4 -4 3
-3 1 -61 1 -4 -2 -1 -7
0 26 -6 31 -2 0 -3 17
-2 -4 -7 41 7 -84 -7 20
29 22 3 -127 10 12 65 1
0 2 10 -2 5 1 -1 -3
1 0 -3 20 15 20 -6 -3
00000000: ca03 00f9 40f4 f8e8 f5ad 0e04 0bf9 1277
00000010: fff2 feeb fe06 11eb 008f 1204 0300 f635
00000020: f0fc 0d20 e406 e381 2d07 0a0a e9c9 fb04
00000030: 1504 f3f7 f78c 0df8 1300 e819 0bdd f808
00000040: f223 4724 b8fa 0203 31f5 0309 093f 3506
00000050: 0efd ff01 ede3 573b 00f6 2c05 f600 1003
00000060: 462e 00ff ff00 f205 f805 2604 f605 0581
00000070: 3010 01ea fa0b 03d5 d900 ea00 fcfc ed2d
00000080: 11ee f7f6 eff1 fa1b 01f3 25cf f8d2 fff5
00000090: 0ffc fc15 0338 2efb 001b f5f3 da00 0d1a
000000a0: 0502 16f7 feec 8116 efff ebf3 b7d9 d103
000000b0: 03fa 251e 04ff 1508 ef00 cd2b fd0f c6e8
000000c0: fc02 fe01 fc0d 0206 fef4 0dff e904 fc03
000000d0: fd01 c301 fcfe fff9 001a fa1f fe00 fd11
000000e0: fefc f929 07ac f914 1d16 0381 0a0c 4101
000000f0: 0002 0afe 0501 fffd 0100 fd14 0f14 fafd

tfl.pseudo_qconst3 i1 [1, 3, 3, 64]
-62 -37 -74 50 -22 25 -72 -6
-47 -63 39 88 65 -8 83 29
-25 -38 -13 89 -49 -52 -25 -39
-102 -76 -86 127 1 -72 41 59
53 -58 -58 -47 119 -4 -58 -87
-53 -45 -75 -53 72 75 -4 -82
-73 -60 -51 56 44 55 -39 47
-22 -26 -50 22 -126 37 49 50
-98 -59 -38 127 -47 35 -60 25
-127 -100 36 116 71 -127 -2 109
-127 -127 -73 127 -71 -19 127 0
-127 -91 8 -114 24 -90 62 99
41 -76 -127 73 51 127 -56 -77
-96 -76 -52 19 127 90 -8 -107
16 -80 -88 99 50 100 -58 98
-88 -76 -96 -65 53 113 75 14
-55 -3 -1 42 -9 19 4 21
-50 -56 -24 44 31 -110 -79 99
-56 -88 81 96 -36 28 112 65
-106 -34 67 7 2 -71 23 55
-7 -5 -79 -21 -81 -51 84 -23
-59 -49 22 65 46 31 22 -23
56 -55 -46 55 21 56 -42 58
-15 -127 -57 52 30 21 26 -56
-69 -64 -108 -12 -65 -71 47 -67
-1 -109 -6 105 87 2 120 47
-2 -37 46 97 -98 -77 10 -127
-41 -94 -127 32 37 -6 63 96
57 -82 -30 -104 -127 -9 -78 -127
-93 -99 -113 -94 -41 83 -38 -90
-127 -86 -86 85 -71 72 -82 65
-60 -1 -64 72 82 -127 81 121
00000000: c2db b632 ea19 b8fa d1c1 2758 41f8 531d
00000010: e7da f359 cfcc e7d9 9ab4 aa7f 01b8 293b
00000020: 35c6 c6d1 77fc c6a9 cbd3 b5cb 484b fcae
00000030: b7c4 cd38 2c37 d92f eae6 ce16 8225 3132
00000040: 9ec5 da7f d123 c419 819c 2474 4781 fe6d
00000050: 8181 b77f b9ed 7f00 81a5 088e 18a6 3e63
00000060: 29b4 8149 337f c8b3 a0b4 cc13 7f5a f895
00000070: 10b0 a863 3264 c662 a8b4 a0bf 3571 4b0e
00000080: c9fd ff2a f713 0415 cec8 e82c 1f92 b163
00000090: c8a8 5160 dc1c 7041 96de 4307 02b9 1737
000000a0: f9fb b1eb afcd 54e9 c5cf 1641 2e1f 16e9
000000b0: 38c9 d237 1538 d63a f181 c734 1e15 1ac8
000000c0: bbc0 94f4 bfb9 2fbd ff93 fa69 5702 782f
000000d0: fedb 2e61 9eb3 0a81 d7a2 8120 25fa 3f60
000000e0: 39ae e298 81f7 b281 a39d 8fa2 d753 daa6
000000f0: 81aa aa55 b948 ae41 c4ff c048 5281 5179

tfl.pseudo_qconst5 i1 [64, 1, 1, 32]
0 -2 -1 0 0 3 -26 15
0 1 -17 0 -14 -127 25 0
0 -1 5 121 0 0 -1 61
0 -14 -2 19 35 -1 -19 -1
0 -71 0 0 0 -26 -4 34
0 -2 2 0 3 0 2 0
0 3 -1 1 0 0 -74 -1
-4 2 65 1 0 127 -6 -2
0 42 4 0 0 97 -4 28
0 52 3 0 2 2 1 0
0 127 -3 2 0 0 -7 -2
0 5 120 -1 -7 -33 5 -2
0 66 0 0 0 47 22 7
0 -77 -4 0 -2 -2 1 0
0 37 -2 0 0 0 98 0
0 0 8 3 0 -127 -2 0
0 -4 -2 0 0 2 0 127
0 1 9 0 4 0 1 0
0 -29 -1 0 0 0 -3 0
0 3 -1 1 3 -1 -2 0
0 73 26 0 0 -75 127 67
0 -91 -15 0 -6 -4 -9 0
0 25 1 10 0 0 -53 5
0 -10 61 13 -7 52 -18 -1
0 -3 32 0 0 22 36 -82
0 -12 -47 0 127 -10 -21 0
0 -20 22 -12 0 0 -11 6
-1 90 25 13 82 19 49 -1
0 -78 -6 0 0 62 -127 -31
0 88 7 0 -13 9 4 0
0 -13 -15 -21 0 0 49 4
-1 -19 -59 2 -9 -82 7 0
00000000: 00fe ff00 0003 e60f 0001 ef00 f281 1900
00000010: 00ff 0579 0000 ff3d 00f2 fe13 23ff edff
00000020: 00b9 0000 00e6 fc22 00fe 0200 0300 0200
00000030: 0003 ff01 0000 b6ff fc02 4101 007f fafe
00000040: 002a 0400 0061 fc1c 0034 0300 0202 0100
00000050: 007f fd02 0000 f9fe 0005 78ff f9df 05fe
00000060: 0042 0000 002f 1607 00b3 fc00 fefe 0100
00000070: 0025 fe00 0000 6200 0000 0803 0081 fe00
00000080: 00fc fe00 0002 007f 0001 0900 0400 0100
00000090: 00e3 ff00 0000 fd00 0003 ff01 03ff fe00
000000a0: 0049 1a00 00b5 7f43 00a5 f100 fafc f700
000000b0: 0019 010a 0000 cb05 00f6 3d0d f934 eeff
000000c0: 00fd 2000 0016 24ae 00f4 d100 7ff6 eb00
000000d0: 00ec 16f4 0000 f506 ff5a 190d 5213 31ff
000000e0: 00b2 fa00 003e 81e1 0058 0700 f309 0400
000000f0: 00f3 f1eb 0000 3104 ffed c502 f7ae 0700

tfl.pseudo_qconst7 i1 [1, 3, 3, 32]
-107 -8 -9 4 -23 17 -5 -15
-103 -3 0 8 103 -10 -127 -125
-69 33 -16 -2 -79 2 -20 2
-38 13 9 6 -4 5 -11 -127
-127 -31 127 28 65 34 23 -54
-71 -44 -30 -22 116 5 110 12
-74 93 -127 17 -60 -125 0 -1
62 -20 2 18 -22 15 -7 -77
-124 9 -7 127 127 -6 3 8
-100 -13 -4 63 -23 3 8 -113
45 13 -12 -14 -127 -62 8 1
16 1 1 4 1 -17 1 -83
-59 17 3 -1 -100 -46 26 33
-125 -127 27 38 -127 -122 126 -105
-96 71 -8 -127 -97 42 40 121
-49 23 -15 58 -26 -22 -50 -78
-85 127 -118 -66 -38 -127 -127 127
-112 -104 127 127 -67 127 -102 -86
-74 127 5 92 20 121 127 -127
-82 127 -127 -127 127 -127 127 -67
-115 -36 4 -65 65 34 -5 -24
-112 10 8 -43 15 -3 -7 -43
-32 7 -5 30 -80 -26 -28 1
-36 -13 30 -3 -18 47 -20 -112
18 -31 1 -21 -6 45 -3 -46
-114 -6 -4 80 19 2 -7 -127
-80 56 26 -38 -90 19 -37 -4
-127 -40 18 -2 -1 16 -10 -37
-65 16 -3 -15 -2 -22 23 27
-113 28 -29 67 -37 1 -3 -83
-127 78 118 57 -39 127 22 2
-99 -88 7 19 -44 7 -12 -23
00000000: 95f8 f704 e911 fbf1 99fd 0008 67f6 8183
00000010: bb21 f0fe b102 ec02 da0d 0906 fc05 f581
00000020: 81e1 7f1c 4122 17ca b9d4 e2ea 7405 6e0c
00000030: b65d 8111 c483 00ff 3eec 0212 ea0f f9b3
00000040: 8409 f97f 7ffa 0308 9cf3 fc3f e903 088f
00000050: 2d0d f4f2 81c2 0801 1001 0104 01ef 01ad
00000060: c511 03ff 9cd2 1a21 8381 1b26 8186 7e97
00000070: a047 f881 9f2a 2879 cf17 f13a e6ea ceb2
00000080: ab7f 8abe da81 817f 9098 7f7f bd7f 9aaa
00000090: b67f 055c 1479 7f81 ae7f 8181 7f81 7fbd
000000a0: 8ddc 04bf 4122 fbe8 900a 08d5 0ffd f9d5
000000b0: e007 fb1e b0e6 e401 dcf3 1efd ee2f ec90
000000c0: 12e1 01eb fa2d fdd2 8efa fc50 1302 f981
000000d0: b038 1ada a613 dbfc 81d8 12fe ff10 f6db
000000e0: bf10 fdf1 feea 171b 8f1c e343 db01 fdad
000000f0: 814e 7639 d97f 1602 9da8 0713 d407 f4e9

tfl.pseudo_qconst9 i1 [32, 3, 3, 3]
0 0 0 0 0 0 0 0
0 0 0 0 0 0 0 0
0 0 0 0 0 0 0 0
0 0 0 58 -65 5 79 -84
15 31 -20 -11 80 -91 11 99
-127 41 39 -53 16 31 -18 -18
27 -36 9 6 -4 -6 3 9
-15 1 13 0 7 1 0 -97
-127 -58 -57 -62 -17 11 15 0
67 79 51 53 55 36 -5 -11
-9 0 0 0 0 0 0 0
0 0 0 0 0 0 0 0
0 0 0 0 0 0 0 0
0 0 0 0 0 0 0 0
0 0 0 0 0 0 0 0
0 0 0 0 0 0 0 0
0 0 0 0 0 0 0 42
30 -66 76 49 -92 34 -1 -24
20 49 -76 79 80 -127 42 13
-56 2 17 -23 27 22 -49 17
-17 -13 -58 -28 -66 3 -3 -13
30 11 -4 -127 -116 -90 -24 -29
-27 22 17 8 -39 -32 -50 -14
1 -13 -12 7 20 -78 25 61
-100 77 84 27 20 -40 -5 -83
67 -95 3 127 -28 -10 9 59
-50 -30 -29 5 27 -50 28 26
0 0 0 0 0 0 0 0
0 0 0 0 0 0 0 0
0 0 0 0 0 0 0 0
0 0 0 17 -38 33 24 -88
59 20 -61 34 29 -82 55 59
00000000: 0000 0000 0000 0000 0000 0000 0000 0000
00000010: 0000 0000 0000 0000 0000 003a bf05 4fac
00000020: 0f1f ecf5 50a5 0b63 8129 27cb 101f eeee
00000030: 1bdc 0906 fcfa 0309 f101 0d00 0701 009f
00000040: 81c6 c7c2 ef0b 0f00 434f 3335 3724 fbf5
00000050: f700 0000 0000 0000 0000 0000 0000 0000
00000060: 0000 0000 0000 0000 0000 0000 0000 0000
00000070: 0000 0000 0000 0000 0000 0000 0000 0000
00000080: 0000 0000 0000 002a 1ebe 4c31 a422 ffe8
00000090: 1431 b44f 5081 2a0d c802 11e9 1b16 cf11
000000a0: eff3 c6e4 be03 fdf3 1e0b fc81 8ca6 e8e3
000000b0: e516 1108 d9e0 cef2 01f3 f407 14b2 193d
000000c0: 9c4d 541b 14d8 fbad 43a1 037f e4f6 093b
000000d0: cee2 e305 1bce 1c1a 0000 0000 0000 0000
000000e0: 0000 0000 0000 0000 0000 0000 0000 0000
000000f0: 0000 0011 da21 18a8 3b14 c322 1dae 373b
