coral/pycoral/examples/test_weights.npz (npz, 26132 bytes, 2 tensors)

weights f4 [1280, 5]
000000 d2 81 12 ba d9 68 1c 3b 44 84 02 bd 67 ba 07 bd
       -0.0005588803 0.0023866205 -0.03186442 -0.03313675
000010 29 0d 08 bd 84 59 fb 3c f4 03 5e 3d ba 43 cd bc
       -0.033215676 0.030682333 0.05420299 -0.025056709
000020 26 59 61 ba 66 bb 11 3c 75 d8 be 3d 6f 65 5e bd
       -0.0008596353 0.008894777 0.0931863 -0.054295953
000030 4b 1d 35 bc f6 16 b4 bc 0c 66 34 bd bb fb 5a bd
       -0.011054347 -0.021983605 -0.044042632 -0.053462725
000040 d8 cd 7c bd b2 9d c4 3c 28 5e 68 3c 1f c8 ff bc
       -0.061719745 0.024000976 0.014182605 -0.031223355
000050 d2 69 aa bc 37 54 fe b8 30 50 33 bd 5c 41 5a 3c
       -0.020802412 -0.0001212735 -0.043777645 0.013321247
000060 bf 1e 8c 3b f0 b8 36 3b bc 4e 77 3c 5b 2a 26 bb
       0.004276126 0.0027881227 0.015094455 -0.0025354836
000070 36 63 59 bd 6d cc a3 3c ae 69 83 bc e0 e7 09 bd
       -0.05307313 0.019994939 -0.016041603 -0.0336684
000080 d8 02 03 bd 02 da c4 3c c0 34 9f 3d 34 c9 00 bd
       -0.031985134 0.024029735 0.07773733 -0.031441882
000090 51 dc f9 bd 99 7c 65 3d 6f c2 40 3c 63 e7 57 3c
       -0.12200225 0.05602703 0.011765107 0.0131777255
0000a0 6a ce 15 3d ef 40 a7 bc ae aa b7 3c f5 10 5c bd
       0.036573805 -0.020416705 0.022420254 -0.05372711
0000b0 d3 9e be 3c c2 d9 b6 3d 8a 12 16 bb fd 17 eb 3c
       0.023269093 0.08928253 -0.0022899234 0.028697962
0000c0 4c a7 80 bd 53 ac 27 3c 75 00 42 3d 92 39 c6 bd
       -0.06281909 0.010233956 0.047363717 -0.096789494
0000d0 dd 6e bf bb 6c 86 a2 3c 7d 3a cb 3c e4 50 5e bd
       -0.0058420734 0.019839488 0.024808163 -0.054276362
0000e0 11 87 90 3c e3 31 d6 3d 1c 00 44 3d 5c 4c 45 bc
       0.01764253 0.10458734 0.047851667 -0.012042131
0000f0 39 a7 ba 3d 4c 95 4e bd 28 96 34 bd 13 61 f0 3c
       0.091139264 -0.05043535 -0.044088513 0.029343164
000100 4c 51 57 bd ab e8 3d bc ea 78 d9 3c ea 80 71 bb
       -0.052567765 -0.011591117 0.026546914 -0.003685052
000110 78 e6 65 3d d3 9a 1f bb 78 83 8d bd 99 ba 51 bd
       0.056127995 -0.0024353757 -0.06909841 -0.051203344
000120 99 ca 07 3d 03 75 82 bc 54 40 8b 3d 21 b7 51 bc
       0.033152197 -0.015924936 0.06799379 -0.012800009
000130 e2 8f da bc 0b 29 fe bc c9 33 62 bb d7 85 ba bd
       -0.026679937 -0.03102543 -0.003451573 -0.09107559
000140 1e 16 be 3c d5 05 ac bd 53 1b 87 bd ea 6e 98 bc
       0.023203906 -0.0839955 -0.065970086 -0.018607575
000150 57 ae ae 3c f2 a6 71 3d c7 d1 47 bc a7 6c 09 be
       0.021323366 0.058997102 -0.012196011 -0.13420354
000160 15 b6 32 bc c8 da 16 bd 23 bc 16 3d 2f 09 97 bd
       -0.01090767 -0.03682974 0.036800515 -0.073747985
000170 70 bc 8e 3d 2e 16 d0 3b 91 05 63 3c 16 cb 4e bd
       0.06969535 0.0063503003 0.013856308 -0.050486647
000180 0c 6b a2 3d 3a 09 d5 3d f8 23 aa bc 51 5c ab bc
       0.07930574 0.104021505 -0.020769104 -0.020918043
000190 b8 23 16 bd ce bf 79 3c b5 f2 35 3d 91 69 1d 3c
       -0.036655158 0.015243484 0.044420917 0.0096076885
0001a0 4d 95 44 bc 57 72 db 3c 55 d7 91 3b 86 77 c7 bd
       -0.011998487 0.02678792 0.0044507184 -0.09739594
0001b0 41 e3 4c bd 7a 57 09 3c 3c 2b 63 bc 98 a4 a7 bd
       -0.050021414 0.008382672 -0.013865288 -0.08185691
0001c0 c6 06 58 bd 75 1c 27 3d dc f6 60 3d 8b 62 5a bd
       -0.052740835 0.040798623 0.054922923 -0.053316634
0001d0 70 15 51 3b 38 28 25 bd cb f8 f4 bc f3 4d e3 3d
       0.0031903647 -0.04032156 -0.02990379 0.11098852
0001e0 1a 0d 9d 3c 8a a6 1c bc 05 d3 2a 3d 73 84 74 bd
       0.019171286 -0.00956119 0.04170515 -0.059696626
0001f0 0f 14 8c b9 0b ae 05 bd 4d be b9 bc 30 22 9c bd
       -0.00026717826 -0.032636683 -0.02267375 -0.07623708
000200 a8 cf 97 bc 45 4e 3f bc ec dd ad bd af 8a e5 bd
       -0.018531635 -0.011676376 -0.08489594 -0.112080924
000210 0a ff 59 3c 2b da 33 bd b3 95 86 3c e9 cd 4d 3d
       0.013305435 -0.043909233 0.016428804 0.0502452
000220 fd 37 c9 3c 3d c0 ac 3c 74 84 d0 bd d2 a2 f2 3c
       0.02456283 0.02108776 -0.101815134 0.029618654
000230 3c bb 18 3d 15 33 29 be 9a e6 18 3c 53 43 48 3b
       0.037287936 -0.16523392 0.009332323 0.0030557706
000240 dd 75 5b bd e7 53 d8 bc 6c 38 af 3c 3d 33 4f 3d
       -0.0535792 -0.026407195 0.021389209 0.050585974
000250 45 17 93 3c b0 01 02 bc 28 41 c6 3c 1d a8 52 3d
       0.017955432 -0.007934973 0.02420099 0.051429857
000260 13 35 65 3b ad 24 c6 3d 0d 62 61 bd 59 c8 24 3d
       0.0034974262 0.09674964 -0.05502515 0.04023013
000270 e7 73 75 bd f7 f1 09 bc 17 b2 9f 3d a4 9d 90 bd
       -0.059924986 -0.008419505 0.0779764 -0.070613176
000280 9a e0 13 3d 03 5e 53 bd 3d 48 12 be 23 08 9b bd
       0.03610287 -0.05160333 -0.14285369 -0.07569911
000290 d5 9c aa 3c f9 11 79 3c 15 8a 27 3d 96 61 b6 3d
       0.020826736 0.015202039 0.04090317 0.08905332
0002a0 1a 7f 94 3d 2a 5d 65 3d 71 76 92 3c fc 1d 5e 3c
       0.07250805 0.05599705 0.017878743 0.0135569535
0002b0 c0 d5 53 3d 5b a7 1e 3c df 40 49 3d 25 d8 26 3d
       0.05171752 0.009683455 0.04913413 0.040733475
0002c0 76 44 4d bd 6a 5c a7 ba 62 34 6a bc f5 91 9a bd
       -0.050114118 -0.001276863 -0.014294716 -0.0754737
0002d0 c4 a1 30 3d 02 d8 2c 3d 46 46 23 3d d3 c9 31 3d
       0.04312302 0.04219819 0.03986194 0.043405365
0002e0 42 b2 e3 bc 58 66 60 bd c2 1d 1a 3d e8 f6 45 bd
       -0.02779496 -0.054785103 0.037626036 -0.04833117
0002f0 bd 2b 37 3c 19 f6 7d 3d e6 e1 00 be 23 31 d5 3d
       0.011179862 0.062002275 -0.12586173 0.10409763
000300 08 3c bc 3c 7d a6 48 bd ac 95 a6 bd 3a 2f 00 3d
       0.022977844 -0.0489869 -0.081340164 0.03129504
000310 c4 5d ee bd 8c 34 85 3c 13 de ad 3c 37 bc 49 bb
       -0.11638978 0.016260408 0.021224057 -0.003078235
000320 fd e6 69 3d c7 30 7b 3d 7c d8 82 3d f4 67 b4 3b
       0.057105053 0.061325815 0.06388947 0.0055055562
000330 8a 4c 5a 3d 68 7b 5c 3b a3 30 99 3d 99 53 d7 3d
       0.05329565 0.0033642892 0.0747998 0.10513992
000340 b1 a2 4e bc 9c 0f b2 3c a4 37 82 3d 54 1d a9 bd
       -0.012612031 0.021735959 0.06358269 -0.08257547
000350 a9 43 91 3c 4a b5 7e bd d6 dc 4c bd 0f bd ef 3b
       0.017732458 -0.06218461 -0.050015293 0.0073162387
000360 26 be f7 ba 84 48 b3 bc 0c 2b 76 3c 6a 63 13 bd
       -0.0018901273 -0.021885164 0.015024912 -0.03598348
000370 52 50 a0 3b 7c 90 04 3d 67 3e aa bd 5b 99 ae bc
       0.0048923874 0.032364354 -0.083126836 -0.02131336
000380 cc 5d c7 3d bf cf 47 3c e5 16 5e 3c 5e 72 50 bd
       0.09734687 0.012195527 0.013555263 -0.05089032
000390 c4 72 d3 bc d8 8f 51 bd 57 44 b8 bc 78 8c 4f 3d
       -0.02581156 -0.05116257 -0.022493524 0.05067107
0003a0 29 a8 08 bd 1e 60 56 bb 06 5d 14 bd 84 f7 44 bd
       -0.033363495 -0.00327111 -0.036221527 -0.04808761
0003b0 b0 ea d6 3c 93 68 4f bc dd ff 60 bc 2f ae 86 3d
       0.026234955 -0.01265921 -0.013732878 0.06576192
0003c0 d7 c5 2c 3d 81 12 2c 3c 7f c0 32 bd 13 1f ae 3d
       0.042180862 0.010502459 -0.04364061 0.08502021
0003d0 a2 98 42 bb b0 ff 04 bd 7f 82 f5 3c 0d b0 59 bc
       -0.0029693027 -0.032470405 0.029969452 -0.013286603
0003e0 b2 34 04 3c 27 22 d5 3b 40 85 aa 3d 7e 8b f7 3c
       0.008069204 0.0065043154 0.08326197 0.030217882
0003f0 2e 33 e2 3a b5 39 46 3c 62 0e 3d 3d ae 7f 45 3d
       0.0017257684 0.012098719 0.046156295 0.048217468

biases f4 [5]
000000 20 2b f0 ba 8e 4c 45 3b 51 a7 a2 3b 9b b7 2b 3c
       -0.0018323399 0.0030105445 0.0049637933 0.010480787
000010 84 2c 88 bc
       -0.01662279
